…
          "base_uri": "https://localhost:8080/"
        },
        "id": "AJJ4HVqL4wvX",
        "outputId": "84976e10-65eb-4e0c-91e6-1f04dbe8bf1a"
      },
      "outputs": [
        {
          "name": "stdout",
          "output_type": "stream",
          "text": [
            "Model: \"sequential_1\"\n",
            "_________________________________________________________________\n",
            "Layer (type)                 Output Shape              Param #   \n",
            "=================================================================\n",
            "conv2d_5 (Conv2D)            (None, 298, 298, 16)      448       \n",
            "_________________________________________________________________\n",
            "max_pooling2d_5 (MaxPooling2 (None, 149, 149, 16)      0         \n",
            "_________________________________________________________________\n",
            "conv2d_6 (Conv2D)            (None, 147, 147, 32)      4640      \n",
            "_________________________________________________________________\n",
            "max_pooling2d_6 (MaxPooling2 (None, 73, 73, 32)        0         \n",
            "_________________________________________________________________\n",
            "conv2d_7 (Conv2D)            (None, 71, 71, 64)        18496     \n",
            "_________________________________________________________________\n",
            "max_pooling2d_7 (MaxPooling2 (None, 35, 35, 64)        0         \n",
            "_________________________________________________________________\n",
            "conv2d_8 (Conv2D)            (None, 33, 33, 64)        36928     \n",
            "_________________________________________________________________\n",
            "max_pooling2d_8 (MaxPooling2 (None, 16, 16, 64)        0         \n",
            "_________________________________________________________________\n",
            "conv2d_9 (Conv2D)            (None, 14, 14, 64)        36928     \n",
            "_________________________________________________________________\n",
            "max_pooling2d_9 (MaxPooling2 (None, 7, 7, 64)          0         \n",
            "_________________________________________________________________\n",
            "flatten_1 (Flatten)          (None, 3136)              0         \n",
            "_________________________________________________________________\n",
            "dense_2 (Dense)              (None, 512)               1606144   \n",
            "_________________________________________________________________\n",
            "dense_3 (Dense)              (None, 1)                 513       \n",
            "=================================================================\n",
            "Total params: 1,704,097\n",
            "Trainable params: 1,704,097\n",
            "Non-trainable params: 0\n",
            "_________________________________________________________________\n"
          ]
        }
      ],
      "source": [
        "model.summary()"
      ]
    },
    {
      "cell_type": "markdown",
…
